…
    ENABLED: false
    FLIP: true
    MAX_SIZE: 4000
    MIN_SIZES:
    - 400
    - 500
    - 600
    - 700
    - 800
    - 900
    - 1000
    - 1100
    - 1200
  DETECTIONS_PER_IMAGE: 100
  EVAL_PERIOD: 5000
  EXPECTED_RESULTS: []
  KEYPOINT_OKS_SIGMAS: []
  NOISE_ALL: false
  PRECISE_BN:
    ENABLED: false
    NUM_ITER: 200
VERSION: 2
VIS_PERIOD: 0

[12/26 15:48:59] detectron2 INFO: Full config saved to ./output/config.yaml
[12/26 15:48:59] d2.utils.env INFO: Using a generated random seed 60760886
[12/26 15:49:15] d2.engine.defaults INFO: Model:
OneStageDetector(
  (backbone): FPN(
    (fpn_lateral2): Conv2d(96, 256, kernel_size=(1, 1), stride=(1, 1))
    (fpn_output2): Conv2d(256, 256, kernel_size=(3, 3), stride=(1, 1), padding=(1, 1))
    (fpn_lateral3): Conv2d(192, 256, kernel_size=(1, 1), stride=(1, 1))
    (fpn_output3): Conv2d(256, 256, kernel_size=(3, 3), stride=(1, 1), padding=(1, 1))
    (fpn_lateral4): Conv2d(384, 256, kernel_size=(1, 1), stride=(1, 1))
    (fpn_output4): Conv2d(256, 256, kernel_size=(3, 3), stride=(1, 1), padding=(1, 1))
    (fpn_lateral5): Conv2d(768, 256, kernel_size=(1, 1), stride=(1, 1))
    (fpn_output5): Conv2d(256, 256, kernel_size=(3, 3), stride=(1, 1), padding=(1, 1))
    (top_block): LastLevelMaxPool()
    (bottom_up): ConvNeXt(
      (downsample_layers): ModuleList(
        (0): Sequential(
          (0): Conv2d(3, 96, kernel_size=(4, 4), stride=(4, 4))
          (1): LayerNorm()
        )
        (1): Sequential(
          (0): LayerNorm()
          (1): Conv2d(96, 192, kernel_size=(2, 2), stride=(2, 2))
        )
        (2): Sequential(
          (0): LayerNorm()
          (1): Conv2d(192, 384, kernel_size=(2, 2), stride=(2, 2))
        )
        (3): Sequential(
          (0): LayerNorm()
          (1): Conv2d(384, 768, kernel_size=(2, 2), stride=(2, 2))
        )
      )
      (stages): ModuleList(
        (0): Sequential(
          (0): Block(
            (dwconv): Conv2d(96, 96, kernel_size=(7, 7), stride=(1, 1), padding=(3, 3), groups=96)
            (norm): LayerNorm()
            (pwconv1): Linear(in_features=96, out_features=384, bias=True)
            (act): GELU(approximate='none')
            (pwconv2): Linear(in_features=384, out_features=96, bias=True)
            (drop_path): Identity()
          )
          (1): Block(
            (dwconv): Conv2d(96, 96, kernel_size=(7, 7), stride=(1, 1), padding=(3, 3), groups=96)
            (norm): LayerNorm()
            (pwconv1): Linear(in_features=96, out_features=384, bias=True)
            (act): GELU(approximate='none')
            (pwconv2): Linear(in_features=384, out_features=96, bias=True)
            (drop_path): DropPath(drop_prob=0.012)
          )
          (2): Block(
            (dwconv): Conv2d(96, 96, kernel_size=(7, 7), stride=(1, 1), padding=(3, 3), groups=96)
            (norm): LayerNorm()
            (pwconv1): Linear(in_features=96, out_features=384, bias=True)
            (act): GELU(approximate='none')
            (pwconv2): Linear(in_features=384, out_features=96, bias=True)
            (drop_path): DropPath(drop_prob=0.024)
          )
        )
        (1): Sequential(
          (0): Block(
            (dwconv): Conv2d(192, 192, kernel_size=(7, 7), stride=(1, 1), padding=(3, 3), groups=192)
            (norm): LayerNorm()
            (pwconv1): Linear(in_features=192, out_features=768, bias=True)
            (act): GELU(approximate='none')
            (pwconv2): Linear(in_features=768, out_features=192, bias=True)
            (drop_path): DropPath(drop_prob=0.035)
          )
          (1): Block(
            (dwconv): Conv2d(192, 192, kernel_size=(7, 7), stride=(1, 1), padding=(3, 3), groups=192)
            (norm): LayerNorm()
            (pwconv1): Linear(in_features=192, out_features=768, bias=True)
            (act): GELU(approximate='none')
            (pwconv2): Linear(in_features=768, out_features=192, bias=True)
            (drop_path): DropPath(drop_prob=0.047)
          )
          (2): Block(
            (dwconv): Conv2d(192, 192, kernel_size=(7, 7), stride=(1, 1), padding=(3, 3), groups=192)
            (norm): LayerNorm()
            (pwconv1): Linear(in_features=192, out_features=768, bias=True)
            (act): GELU(approximate='none')
            (pwconv2): Linear(in_features=768, out_features=192, bias=True)
            (drop_path): DropPath(drop_prob=0.059)
          )
        )
        (2): Sequential(
          (0): Block(
            (dwconv): Conv2d(384, 384, kernel_size=(7, 7), stride=(1, 1), padding=(3, 3), groups=384)
            (norm): LayerNorm()
            (pwconv1): Linear(in_features=384, out_features=1536, bias=True)
            (act): GELU(approximate='none')
            (pwconv2): Linear(in_features=1536, out_features=384, bias=True)
            (drop_path): DropPath(drop_prob=0.071)
          )
          (1): Block(
            (dwconv): Conv2d(384, 384, kernel_size=(7, 7), stride=(1, 1), padding=(3, 3), groups=384)
            (norm): LayerNorm()
            (pwconv1): Linear(in_features=384, out_features=1536, bias=True)
            (act): GELU(approximate='none')
            (pwconv2): Linear(in_features=1536, out_features=384, bias=True)
            (drop_path): DropPath(drop_prob=0.082)
          )
          (2): Block(
            (dwconv): Conv2d(384, 384, kernel_size=(7, 7), stride=(1, 1), padding=(3, 3), groups=384)
            (norm): LayerNorm()
            (pwconv1): Linear(in_features=384, out_features=1536, bias=True)
            (act): GELU(approximate='none')
            (pwconv2): Linear(in_features=1536, out_features=384, bias=True)
            (drop_path): DropPath(drop_prob=0.094)
          )
          (3): Block(
            (dwconv): Conv2d(384, 384, kernel_size=(7, 7), stride=(1, 1), padding=(3, 3), groups=384)
            (norm): LayerNorm()
            (pwconv1): Linear(in_features=384, out_features=1536, bias=True)
            (act): GELU(approximate='none')
            (pwconv2): Linear(in_features=1536, out_features=384, bias=True)
            (drop_path): DropPath(drop_prob=0.106)
          )
          (4): Block(
            (dwconv): Conv2d(384, 384, kernel_size=(7, 7), stride=(1, 1), padding=(3, 3), groups=384)
            (norm): LayerNorm()
            (pwconv1): Linear(in_features=384, out_features=1536, bias=True)
            (act): GELU(approximate='none')
            (pwconv2): Linear(in_features=1536, out_features=384, bias=True)
            (drop_path): DropPath(drop_prob=0.118)
          )
          (5): Block(
            (dwconv): Conv2d(384, 384, kernel_size=(7, 7), stride=(1, 1), padding=(3, 3), groups=384)
            (norm): LayerNorm()
            (pwconv1): Linear(in_features=384, out_features=1536, bias=True)
            (act): GELU(approximate='none')
            (pwconv2): Linear(in_features=1536, out_features=384, bias=True)
            (drop_path): DropPath(drop_prob=0.129)
          )
          (6): Block(
            (dwconv): Conv2d(384, 384, kernel_size=(7, 7), stride=(1, 1), padding=(3, 3), groups=384)
            (norm): LayerNorm()
            (pwconv1): Linear(in_features=384, out_features=1536, bias=True)
            (act): GELU(approximate='none')
            (pwconv2): Linear(in_features=1536, out_features=384, bias=True)
            (drop_path): DropPath(drop_prob=0.141)
          )
          (7): Block(
            (dwconv): Conv2d(384, 384, kernel_size=(7, 7), stride=(1, 1), padding=(3, 3), groups=384)
            (norm): LayerNorm()
            (pwconv1): Linear(in_features=384, out_features=1536, bias=True)
            (act): GELU(approximate='none')
            (pwconv2): Linear(in_features=1536, out_features=384, bias=True)
            (drop_path): DropPath(drop_prob=0.153)
          )
          (8): Block(
            (dwconv): Conv2d(384, 384, kernel_size=(7, 7), stride=(1, 1), padding=(3, 3), groups=384)
            (norm): LayerNorm()
            (pwconv1): Linear(in_features=384, out_features=1536, bias=True)
            (act): GELU(approximate='none')
            (pwconv2): Linear(in_features=1536, out_features=384, bias=True)
            (drop_path): DropPath(drop_prob=0.165)
          )
        )
        (3): Sequential(
          (0): Block(
            (dwconv): Conv2d(768, 768, kernel_size=(7, 7), stride=(1, 1), padding=(3, 3), groups=768)
            (norm): LayerNorm()
            (pwconv1): Linear(in_features=768, out_features=3072, bias=True)
            (act): GELU(approximate='none')
            (pwconv2): Linear(in_features=3072, out_features=768, bias=True)
            (drop_path): DropPath(drop_prob=0.176)
          )
          (1): Block(
            (dwconv): Conv2d(768, 768, kernel_size=(7, 7), stride=(1, 1), padding=(3, 3), groups=768)
            (norm): LayerNorm()
            (pwconv1): Linear(in_features=768, out_features=3072, bias=True)
            (act): GELU(approximate='none')
            (pwconv2): Linear(in_features=3072, out_features=768, bias=True)
            (drop_path): DropPath(drop_prob=0.188)
          )
          (2): Block(
            (dwconv): Conv2d(768, 768, kernel_size=(7, 7), stride=(1, 1), padding=(3, 3), groups=768)
            (norm): LayerNorm()
            (pwconv1): Linear(in_features=768, out_features=3072, bias=True)
            (act): GELU(approximate='none')
            (pwconv2): Linear(in_features=3072, out_features=768, bias=True)
            (drop_path): DropPath(drop_prob=0.200)
          )
        )
      )
      (norm0): LayerNorm()
      (norm1): LayerNorm()
      (norm2): LayerNorm()
      (norm3): LayerNorm()
    )
  )
  (proposal_generator): FCOS(
    (fcos_head): FCOSHead(
      (cls_tower): Sequential(
        (0): Conv2d(256, 256, kernel_size=(3, 3), stride=(1, 1), padding=(1, 1))
        (1): GroupNorm(32, 256, eps=1e-05, affine=True)
        (2): ReLU()
        (3): Conv2d(256, 256, kernel_size=(3, 3), stride=(1, 1), padding=(1, 1))
        (4): GroupNorm(32, 256, eps=1e-05, affine=True)
        (5): ReLU()
        (6): Conv2d(256, 256, kernel_size=(3, 3), stride=(1, 1), padding=(1, 1))
        (7): GroupNorm(32, 256, eps=1e-05, affine=True)
        (8): ReLU()
        (9): Conv2d(256, 256, kernel_size=(3, 3), stride=(1, 1), padding=(1, 1))
        (10): GroupNorm(32, 256, eps=1e-05, affine=True)
        (11): ReLU()
      )
      (bbox_tower): Sequential(
        (0): Conv2d(256, 256, kernel_size=(3, 3), stride=(1, 1), padding=(1, 1))
        (1): GroupNorm(32, 256, eps=1e-05, affine=True)
        (2): ReLU()
        (3): Conv2d(256, 256, kernel_size=(3, 3), stride=(1, 1), padding=(1, 1))
        (4): GroupNorm(32, 256, eps=1e-05, affine=True)
        (5): ReLU()
        (6): Conv2d(256, 256, kernel_size=(3, 3), stride=(1, 1), padding=(1, 1))
        (7): GroupNorm(32, 256, eps=1e-05, affine=True)
        (8): ReLU()
        (9): Conv2d(256, 256, kernel_size=(3, 3), stride=(1, 1), padding=(1, 1))
        (10): GroupNorm(32, 256, eps=1e-05, affine=True)
        (11): ReLU()
      )
      (share_tower): Sequential()
      (cls_logits): Conv2d(256, 80, kernel_size=(3, 3), stride=(1, 1), padding=(1, 1))
      (bbox_pred): Conv2d(256, 4, kernel_size=(3, 3), stride=(1, 1), padding=(1, 1))
      (ctrness): Conv2d(256, 1, kernel_size=(3, 3), stride=(1, 1), padding=(1, 1))
      (scales): ModuleList(
        (0-4): 5 x Scale()
      )
    )
    (fcos_outputs): FCOSOutputs(
      (loc_loss_func): IOULoss()
    )
  )
)
[12/26 15:49:30] d2.data.datasets.coco INFO: Loading /home/dataset/coco/annotations/instances_train2017.json takes 14.18 seconds.
[12/26 15:49:30] d2.data.datasets.coco INFO: Loaded 118287 images in COCO format from /home/dataset/coco/annotations/instances_train2017.json
…
